regressions/Concrete/best_model.pth (torch, 2903 bytes, 5 tensors)

weight f4 [4, 8]
0	0x3d3e89f3	0.046518277
1	0x3e227719	0.15865745
2	0xbe96a4d0	-0.29422617
3	0xbe6edf56	-0.23327383
4	0xbdbf5e70	-0.093441844
5	0x3e05958e	0.13045332
6	0x3c128411	0.00894262
7	0x3e39657c	0.1810512
8	0xbd0083e0	-0.031375766
9	0x3dbf9998	0.093554676
10	0xbddad35c	-0.10684845
11	0xbd8e541c	-0.06949636
12	0xbeacefc2	-0.3377667
13	0xbe6fc590	-0.23415208
14	0xbe153d9f	-0.14574288
15	0x3c569440	0.013096869
16	0x3ddbdd9b	0.10735627
17	0x3e5c519e	0.2151551
18	0xbe45f601	-0.19332124
19	0xbe475f06	-0.19469842
20	0x3e359ad6	0.17734846
21	0x3e7f378a	0.2492353
22	0xbdb26f3a	-0.08712621
23	0x3e8f1fc8	0.27953935
24	0xbd696b20	-0.056986928
25	0x3d193c38	0.037410945
26	0x3ea3e8a1	0.3201342
27	0xbea7ed20	-0.327981
28	0xbe63eac5	-0.22257526
29	0xbdb74fac	-0.08950743
30	0xbe0d1f66	-0.13781509
31	0x3e9c669d	0.30547038

bias f4 [4]
0	0xbe4fb3f2	-0.20283487
1	0xbe26a886	-0.16275224
2	0xbe8de882	-0.27716452
3	0xbea98920	-0.3311243

weight f4 [3, 4]
0	0xbe819d5b	-0.25315365
1	0x3edc0e9e	0.42979902
2	0x3e28534b	0.16438024
3	0x3e782700	0.24233627
4	0xbdd49510	-0.10379994
5	0xbe833f3a	-0.25634176
6	0xbb1a51eb	-0.0023547362
7	0xbeef069e	-0.46684736
8	0xbec4b21b	-0.38417134
9	0xbe83f9c6	-0.257765
10	0x3e84615e	0.25855535
11	0x3e961926	0.29316062

bias f4 [3]
0	0xbe66a4f0	-0.22523856
1	0xbeb9b9df	-0.3627462
2	0x3e823ab2	0.25435406

weight f4 [1, 3]
0	0x3ee28eac	0.44249475
1	0x3e2c0b68	0.16801226
2	0xbcdf8e66	-0.02728958
